models/mamba_model.pth (torch, 435905 bytes, 54 tensors)

input_proj.weight f4 [64, 52]
0	0x3d9f44b4	0.07776776
1	0x3e4e3151	0.20136
2	0x3d2cfd2a	0.042233624
3	0xbd81246c	-0.06305775
4	0x3e129985	0.14316376
5	0xbd308383	-0.04309417
6	0x3cbaebb4	0.02281747
7	0xbd3ecb82	-0.0465808
8	0x3cb58160	0.022156417
9	0xbd8d9891	-0.06913865
10	0x3e832e86	0.25621432
11	0x3d3d2c5c	0.046184883
12	0x3cdaa78e	0.026691224
13	0x3dbddf22	0.09271075
14	0xbd6345f6	-0.05548664
15	0xbd8caf0e	-0.068693265
16	0x3ed004ab	0.4062856
17	0x3dc7aad2	0.09749378
18	0xbe39ea98	-0.18155897
19	0xbdae595b	-0.08513137
20	0xbdb324db	-0.08747264
21	0xbbd2002d	-0.0064087124
22	0xbdbe645b	-0.09296485
23	0x3d4a4f2a	0.049391903
24	0x3cf6e6c3	0.030139333
25	0xbe487f17	-0.19579731
26	0xbeadb26a	-0.33925182
27	0xbeada95a	-0.33918267
28	0xbaa308ab	-0.0012438496
29	0xbe1a1b41	-0.15049459
30	0x3d0f5f99	0.03500328
31	0xbb887182	-0.004163922
32	0x3df88787	0.12135225
33	0x3ca0ef55	0.019645372
34	0xbd6a7abe	-0.057245962
35	0x3e98faa6	0.2987873
36	0xbd3fe5c0	-0.046849966
37	0xbe08ed2d	-0.13371725
38	0x3d9c9852	0.0764624
39	0x3c5d71b3	0.013515878
40	0x3d05b0f3	0.032639455
41	0x3e40a776	0.18813881
42	0x3e44bc0b	0.19212358
43	0x3e12f94d	0.14352913
44	0xbdde92a3	-0.108678125
45	0xbe43a75e	-0.19106814
46	0x3dc3d442	0.09561969
47	0x3d3607fd	0.044441212
48	0xbd65d782	-0.056113727
49	0x3d1091e8	0.035295397
50	0xbe23aa50	-0.15982938
51	0x3e600961	0.21878578
52	0x3c3e666c	0.011621099
53	0x3e51a534	0.20473176
54	0x3c27093e	0.010195075
55	0x3daff1db	0.08591052
56	0x399c538f	0.00029816895
57	0xbcd37226	-0.025811266
58	0x3bd1c7d8	0.006401997
59	0xbcf32a28	-0.029683188
60	0xbe591ca4	-0.21202332
61	0xbd5deef9	-0.05418298
62	0x3ec27afd	0.37984458
63	0xbc9f54ec	-0.019449674
64	0x3d85c393	0.065314434
65	0x3beddd2f	0.007259033
66	0x3cfdfc8c	0.031004213
67	0x3df0c1f5	0.11755744
68	0xbe552bdb	-0.20817511
69	0xbf0d2d93	-0.55147666
70	0x3e7af05a	0.2450575
71	0x3e8a18c6	0.26972026
72	0x3f00e04d	0.50342256
73	0xbe52e823	-0.20596366
74	0x3d652cef	0.055951055
75	0xbcae9813	-0.021312749
76	0xbb3686f7	-0.0027851441
77	0xbcd9da4d	-0.026593352
78	0x3cffafe6	0.031211805
79	0x3c1f45fe	0.009721277
80	0xbc92e11f	-0.017929612
81	0xbcb36008	-0.021896377
82	0xbc89f0c4	-0.016838439
83	0xbceb2323	-0.028703278
84	0x3b933cb5	0.004493321
85	0x3c9202bf	0.017823575
86	0xba176dd2	-0.00057765574
87	0xbced9a1c	-0.02900415
88	0x3bd20a34	0.0064099077
89	0xbcd1deed	-0.025618995
90	0xbd08cd01	-0.033398632
91	0x3a36029c	0.0006943138
92	0x3b855829	0.0040693474
93	0x3e586bb5	0.21134837
94	0x3a36678e	0.000695818
95	0x3cdc83b0	0.026918262
96	0x3d4e3a89	0.050348792
97	0xbe0d980d	-0.13827534
98	0x3d71a014	0.058990553
99	0xbcf6925f	-0.030099092
100	0x3bdea225	0.0067942315
101	0x3e836967	0.25666353
102	0xbd5e4ba6	-0.054271363
103	0xbe54da92	-0.20786503
104	0xbdab2eac	-0.08358511
105	0xbe4b27dd	-0.19839425
106	0xbd32466a	-0.043524183
107	0xbcb36d7d	-0.021902794
108	0xbce44a3a	-0.027867425
109	0x3af5ebe3	0.0018762316
110	0x3be245bb	0.006905285
111	0xbcd0b0fd	-0.02547502
112	0x3eaca570	0.3371997
113	0x3c7b5f08	0.015342481
114	0xbecb64d9	-0.39725378
115	0x3c79cfaf	0.0152472695
116	0xbd5d0749	-0.053962026
117	0xbc9985c8	-0.01874055
118	0xbcec71b6	-0.028862815
119	0xbe4224ee	-0.189594
120	0xbef72bd1	-0.48275617
121	0xbd86afd6	-0.06576507
122	0x3d2885ac	0.041143104
123	0xbdf7f4fd	-0.12107275
124	0xbf1365ee	-0.5757741
125	0xbd9d49e1	-0.07680107
126	0xbd84acc7	-0.06478267
127	0x3d66282d	0.05619066
128	0xbc90f3df	-0.017694412
129	0x3d493439	0.04912207
130	0xbbf2688b	-0.0073977164
131	0xbc3604d4	-0.01110955
132	0xbc3ed4e4	-0.011647437
133	0x3c94277e	0.018085238
134	0x3c25a46f	0.010110005
135	0x3d05b138	0.032639712
136	0xbc307aa5	-0.010771428
137	0xbccf937f	-0.025338886
138	0x3cf8f090	0.030388147
139	0xbbbad04e	-0.0057011014
140	0x3c537f49	0.012908765
141	0xbcb6ac2e	-0.022298899
142	0xbbb45cac	-0.0055042114
143	0xba9b5cf1	-0.001185326
144	0x3b61118c	0.0034342734
145	0xbe433d1b	-0.19066279
146	0xbd359365	-0.04433002
147	0xbce4c787	-0.027927173
148	0xbba518b4	-0.005038345
149	0xbdea3ccf	-0.114373796
150	0x3c6ca9b7	0.01444476
151	0x3c7d2b04	0.01545215
152	0xbcbbd92b	-0.022930702
153	0xbcc95772	-0.02457783
154	0x3dd36e86	0.10323815
155	0xbed91b44	-0.42403615
156	0x3d621d90	0.055203974
157	0xbddb22d5	-0.10700003
158	0xbd8fb119	-0.070162006
159	0x3d6ae2a8	0.057345062
160	0x3e3618fb	0.17782967
161	0xbcf5df90	-0.03001383
162	0xbb19bb37	-0.0023457536
163	0x3e2e7f5d	0.17040773
164	0x3e8678d9	0.26264074
165	0xbcaebbb5	-0.02132974
166	0xbef6c942	-0.48200423
167	0x3c581b1c	0.013190057
168	0xbcbb8049	-0.02288832
169	0xbd42a229	-0.04751793
170	0x3c9bb91d	0.019009167
171	0xbdfee56e	-0.12446104
172	0xbe6600d7	-0.22461258
173	0x3d120880	0.035652637
174	0xbda83258	-0.08212727
175	0xbe33c500	-0.17555618
176	0xbf0b6a2a	-0.5445887
177	0x3e86e8b1	0.26349404
178	0x3d155777	0.036460366
179	0xbdf7670f	-0.12080204
180	0xbd3107a2	-0.04322017
181	0x3e436aef	0.1908376
182	0x3dd0e370	0.1019963
183	0xbe18e9ba	-0.1493291
184	0x3e1881e7	0.14893304
185	0x3d61f963	0.055169474
186	0x3cdb691c	0.026783518
187	0x3bdbb401	0.0067048077
188	0xbdb5851e	-0.08863281
189	0x3dc04bd9	0.09389467
190	0x3d85c109	0.06530959
191	0x3b67fd9d	0.0035398968
192	0xbda18bf2	-0.078880206
193	0x3e5fa687	0.21840869
194	0x3bc869e4	0.006116139
195	0x3dcebe8d	0.100949384
196	0xbe325106	-0.1741372
197	0xbe1f51a0	-0.15558481
198	0x3d8418cd	0.06450043
199	0xbd1997ba	-0.037498213
200	0xbe0390aa	-0.12848154
201	0x3b32e52d	0.0027297244
202	0x3c6bb777	0.014387003
203	0x3bdc96dc	0.006731851
204	0x3ce015dd	0.027354175
205	0x3d990fbf	0.074737065
206	0xbe06e6b7	-0.13173948
207	0xbe46be36	-0.19408497
208	0xbe151521	-0.14558841
209	0xbe5cbc80	-0.21556282
210	0xbc1eefa1	-0.009700687
211	0x3d8813c3	0.06644394
212	0xbd4c1ef5	-0.04983421
213	0xbda0d27e	-0.07852648
214	0x3ce1ce55	0.027564207
215	0x3d852042	0.06500293
216	0x3de4073c	0.11134192
217	0x3cc0fee2	0.023559038
218	0xbe205a35	-0.15659411
219	0x3cba4091	0.022735866
220	0xbc8cb969	-0.017178254
221	0x3d3ca1d3	0.046052765
222	0xbd32a125	-0.04361071
223	0x3c02d5fb	0.007985587
224	0xbea1ce26	-0.3160259
225	0x3e094ba1	0.13407756
226	0x3e2e592e	0.17026207
227	0xbdb14ac4	-0.086568385
228	0xbf10c4de	-0.56550395
229	0xbe982e82	-0.29722983
230	0xbd065878	-0.032799214
231	0xbc418d1c	-0.011813428
232	0x3d93e390	0.072211385
233	0x3d04561f	0.032308694
234	0xbcd3e0d2	-0.025864039
235	0xbce3844f	-0.02777305
236	0xbd8797a2	-0.066207185
237	0xbd24c7f2	-0.040229745
238	0xbdaa10ee	-0.0830401
239	0xbd8f8250	-0.07007277
240	0x3db197e9	0.08671553
241	0xbcad37ac	-0.02114471
242	0xbcef28a8	-0.029194191
243	0x3d3f6cd9	0.046734665
244	0xbc063aab	-0.0081926985
245	0x3da86b68	0.08223611
246	0x3c079018	0.008274101
247	0x3d5a54b6	0.053303443
248	0xbe0b8836	-0.13626179
249	0xbe9c73b6	-0.3055703
250	0xbde1601f	-0.11004662
251	0xbe16b205	-0.14716347
252	0x3cf6f2d1	0.03014508
253	0xbe267947	-0.16257201
254	0x3cfabce8	0.030607656
255	0x3c64ad84	0.013957385

input_proj.bias f4 [64]
0	0x3d9b1025	0.07571439
1	0xbe377d14	-0.17918807
2	0x3e829280	0.25502396
3	0x3e462b21	0.1935239
4	0x3ca67a93	0.02032212
5	0x3c6e3871	0.014539824
6	0xbe3a41a3	-0.18189101
7	0x3e0a7b20	0.13523531
8	0x3eb07fc1	0.34472468
9	0xbe506280	-0.20350075
10	0xbdd36bc4	-0.10323289
11	0x3e104afb	0.14091103
12	0x3e451dc4	0.19249636
13	0xbd42d211	-0.047563616
14	0x3bf3b4ec	0.007437339
15	0x3d6108ee	0.054940157
16	0x3e57cdfd	0.21074672
17	0xbcfaba65	-0.030606458
18	0xbdb1fc7d	-0.086907364
19	0x3d35517c	0.044267163
20	0x3daa248a	0.083077505
21	0x3e519502	0.20466998
22	0x3e83a098	0.2570846
23	0xbe0da36f	-0.13831876
24	0x3e154178	0.14575756
25	0x3e5350f0	0.20636344
26	0xbe4afa94	-0.1982215
27	0x3d0a1b51	0.033717457
28	0x3cd584de	0.026064333
29	0xbe733f21	-0.2375455
30	0x3df2dd02	0.1185856
31	0xbe50149f	-0.20320366
32	0xbd8adf8b	-0.06780919
33	0xbe30bbc6	-0.1725913
34	0x3df48645	0.119396724
35	0xbd57369e	-0.05254232
36	0xbe097c25	-0.13426264
37	0xbe01f165	-0.12689741
38	0x3e18fd28	0.14940321
39	0xbe554b4f	-0.20829509
40	0x3d270dbe	0.04078459
41	0x3e113bd0	0.14182973
42	0xbe19d1f6	-0.150215
43	0x3dafea02	0.08589555
44	0x3e4d91ee	0.20075199
45	0xbe21a5da	-0.15785924
46	0xbd0e8157	-0.034791317
47	0x3e727f24	0.23681313
48	0xbe27e926	-0.16397533
49	0x3e199286	0.149973
50	0xbe1c0e74	-0.15239888
51	0xbe272d54	-0.16325885
52	0x3de21c33	0.11040535
53	0x3d8c11dd	0.06839345
54	0xbc9a21ab	-0.018814882
55	0x3deabab8	0.11461395
56	0x3dc04096	0.09387319
57	0x3d5c18cd	0.05373459
58	0x3d8fb798	0.070174396
59	0xbe02f7ea	-0.12789884
60	0x3d2f8474	0.042850927
61	0xbcadcd5b	-0.021216085
62	0xbd34bcd4	-0.044125393
63	0xba9eecfb	-0.0012125069

layers.0.mamba.dt_bias f4 [2]
0	0xbfe597ef	-1.7936991
1	0xbfbd3f5d	-1.4784962

layers.0.mamba.A_log f4 [2]
0	0xbd57ad23	-0.05265535
1	0xbe14a84f	-0.1451733

layers.0.mamba.D f4 [2]
0	0x3ea8d364	0.32973778
1	0x3ea3ab4b	0.31966624

layers.0.mamba.in_proj.weight f4 [386, 64]
0	0x39ce0898	0.00039297785
1	0xbc810e8e	-0.01575401
2	0xbd9bcde3	-0.07607629
3	0xbd9775bd	-0.07395504
4	0xbe17b9e1	-0.14817001
5	0xbdc6ec6a	-0.09713061
6	0x3dd10cfd	0.102075554
7	0x3e5ace8b	0.21367852
8	0xbe2d0406	-0.16896066
9	0x3d9a673d	0.075392224
10	0xbeaa63be	-0.33279222
11	0xbc46a678	-0.01212465
12	0xbe7e873f	-0.2485628
13	0xbdc0bdad	-0.09411178
14	0x3e14cbae	0.14530823
15	0x3e9943be	0.29934496
16	0xbe607552	-0.21919754
17	0x3e221f97	0.15832363
18	0x3d0407e6	0.032234095
19	0x3d78f79d	0.060783017
20	0x3e0b4115	0.13599046
21	0x3dbba6ac	0.091626495
22	0xbd70041a	-0.05859766
23	0xbe95314b	-0.2913917
24	0xbe2db564	-0.16963726
25	0x3d9e148d	0.077187635
26	0xbc5c7ff8	-0.0134582445
27	0xbe574702	-0.21023181
28	0xbd9276b6	-0.071515486
29	0xbcaea039	-0.021316634
30	0xbe29c585	-0.16579254
31	0x3e99bbf8	0.3002622
32	0x3e5f8513	0.21828108
33	0xbedf0f59	-0.43566397
34	0xbc3c50e1	-0.011493892
35	0x3e07666d	0.13222666
36	0x3e91dc91	0.2848859
37	0x3bce98a1	0.006304816
38	0x3e9d88c4	0.30768406
39	0xbe1f1c50	-0.15538144
40	0xbd4ad1a2	-0.049516328
41	0xbe83daf8	-0.25752997
42	0xbe2a1cfa	-0.16612616
43	0xbe1a711f	-0.15082215
44	0x3e00358f	0.12520431
45	0x3de7dcf5	0.11321441
46	0xbe176de6	-0.14788017
47	0xbe96ed17	-0.2947776
48	0x3e0f0521	0.139668
49	0xbda872b9	-0.082250066
50	0xbeb0e2ef	-0.34548137
51	0x3d5c6ed1	0.05381662
52	0xbd2dd51c	-0.042439565
53	0x3e89bd84	0.269024
54	0xbd3b2079	-0.045685265
55	0xbe564f40	-0.20928669
56	0xbdd7ab59	-0.10530729
57	0x3e10d102	0.1414223
58	0x3d5297f2	0.051414438
59	0x3eb70688	0.3574717
60	0x3e070532	0.13185576
61	0x3ebe5b52	0.37179047
62	0xbd4eba7d	-0.050470818
63	0x3e1423d9	0.144668
64	0x3e46598b	0.19370095
65	0xbed07821	-0.4071665
66	0x3e8c8828	0.2744763
67	0xba72c017	-0.0009260191
68	0xbcffeaf7	-0.03123997
69	0xbdf76304	-0.120794326
70	0xbe16a5ba	-0.14711657
71	0x3dc65b59	0.09685392
72	0x3e1ed610	0.15511346
73	0xbde9aae6	-0.114095494
74	0x3dd161d7	0.102237396
75	0x3e3bb8df	0.18332241
76	0x3d97dc32	0.07415046
77	0x3d7fe3ed	0.062473226
78	0x3e4acade	0.1980395
79	0xbe1fba81	-0.1559849
80	0xba2ee525	-0.00066717184
81	0x3e5487b6	0.20754895
82	0x3e469010	0.19390893
83	0x3dd62787	0.10456758
84	0x3d462f04	0.04838468
85	0x3d1edaf0	0.038783014
86	0x3db95053	0.09048524
87	0xbe80d5a0	-0.25162983
88	0x3dc23e96	0.094845936
89	0x3d41fb12	0.04735858
90	0xbe10d77c	-0.14144701
91	0x3e334b0f	0.17509101
92	0x3eb69019	0.35656813
93	0xbec59fba	-0.38598424
94	0x3e312a76	0.17301354
95	0xbe0c1cf5	-0.13682921
96	0x3c58d9b8	0.013235502
97	0xbda5939e	-0.08084796
98	0x3d9762a5	0.07391862
99	0xbc902f91	-0.017600806
100	0xbe0e5440	-0.13899326
101	0xbda2469d	-0.07923625
102	0x3d0b6b18	0.03403768
103	0xbebbeb45	-0.36702934
104	0xbd8dfc2d	-0.06932864
105	0x3d3954e3	0.04524697
106	0xbe80ad7f	-0.25132367
107	0xbe241bf6	-0.16026291
108	0x3e5a6e9c	0.21331257
109	0xbebdf56f	-0.37101313
110	0x3d584862	0.052803405
111	0x3d9ccae7	0.07655888
112	0x3c858949	0.016300814
113	0xbdfc58fc	-0.1232166
114	0xbd74eb7b	-0.059794884
115	0xbe12450b	-0.1428415
116	0xbd856276	-0.065129206
117	0xbde44539	-0.11146016
118	0xbd474a7d	-0.048655022
119	0x3e691fb6	0.22766003
120	0x3e05bb22	0.13059667
121	0xbce4a1c1	-0.027909162
122	0x3e5de99c	0.21671146
123	0xbeab13ed	-0.3341364
124	0x3ae4f6af	0.0017468537
125	0xbdea28b3	-0.11433544
126	0x3cbf9645	0.023387084
127	0xbddcd8a1	-0.10783506
128	0x3e4ac16b	0.19800346
129	0x3da3a6c3	0.07990792
130	0xbd0a0999	-0.03370056
131	0xbdc228fb	-0.09480473
132	0xbe707d95	-0.23485406
133	0xbe6234a2	-0.2209039
134	0x3cc700c6	0.024292361
135	0xbd972409	-0.0737992
136	0x3e5b3399	0.21406402
137	0x3e84f974	0.25971568
138	0x3da80ddf	0.08205771
139	0xbd8c6aaa	-0.06856282
140	0xbcf3f256	-0.02977864
141	0x3e434b75	0.19071753
142	0x3caaf596	0.020869058
143	0x3d843a67	0.06456452
144	0xbe505d29	-0.20348038
145	0x3d15494b	0.03644685
146	0x3e3d9383	0.18513303
147	0xbda1254f	-0.07868444
148	0x3daaa683	0.08332541
149	0x3d7ffcfd	0.062497128
150	0x3d60352b	0.054738205
151	0x3e66fdc2	0.22557738
152	0xbe32c198	-0.17456663
153	0xbe808086	-0.25098056
154	0xbe14cd89	-0.1453153
155	0x3e35de8b	0.17760675
156	0x3e515f7e	0.20446584
157	0xbd9252a2	-0.07144667
158	0x3b976ef9	0.0046213833
159	0xbe496030	-0.19665599
160	0xbe2cb590	-0.16866136
161	0x3ce63eb8	0.028106079
162	0xbe2c95d5	-0.16854031
163	0xbe3c430a	-0.18384948
164	0xbe39f301	-0.18159105
165	0x3d5affdf	0.053466674
166	0x3db19ff5	0.086730875
167	0x3bf7d7d5	0.007563571
168	0x3e8b3297	0.27187034
169	0xbda603bf	-0.08106183
170	0xbde2bb2f	-0.11070859
171	0xbeb1862e	-0.34672683
172	0x3da490f8	0.08035463
173	0x3d9c9e3b	0.076473676
174	0x3dee5b11	0.11638463
175	0x3e056728	0.13027632
176	0x3e06d6be	0.13167855
177	0xbd943d8b	-0.07238301
178	0x3da46fdb	0.08029147
179	0xbe125351	-0.14289595
180	0xbdc778fb	-0.09739872
181	0x3ea79b8b	0.32735857
182	0x3e415920	0.18881655
183	0xbe013900	-0.126194
184	0xbe42f039	-0.1903695
185	0x3db572d5	0.08859793
186	0xbe2c0a22	-0.1680074
187	0x3e9648b1	0.29352334
188	0xbeababb1	-0.33529428
189	0xbe23da31	-0.16001202
190	0x3e84ecee	0.25962013
191	0x3e15a244	0.1461268
192	0xbdd2360e	-0.10264216
193	0xbf053f04	-0.5204928
194	0xbe5c30b7	-0.21502958
195	0xbdf62ccb	-0.12020262
196	0xbdea910e	-0.11453448
197	0x3e3e77a2	0.18600324
198	0x3e573873	0.21017627
199	0xbe85a787	-0.26104376
200	0xbd0f9369	-0.03505269
201	0xbe56ef3e	-0.20989701
202	0xbe742cb4	-0.23845178
203	0xbd180f3c	-0.037123904
204	0xbeb4c726	-0.35308188
205	0x3e812473	0.2522312
206	0xbe9dc0cd	-0.30811158
207	0x3a98366b	0.0011612898
208	0x3e065299	0.13117446
209	0x3d7bd480	0.061481953
210	0x3e87eafa	0.2654646
211	0xbe6dd919	-0.23227347
212	0x3ea1e805	0.3162233
213	0x3eabb82c	0.3353895
214	0x3dae18fb	0.085008584
215	0xbe0b10ba	-0.135806
216	0xbdc35c6b	-0.09539112
217	0xbe2a4b25	-0.16630228
218	0x3e31d7cf	0.1736748
219	0xbe21c7de	-0.157989
220	0xbeac5eca	-0.33666068
221	0x3dea4ed9	0.1144082
222	0x3e9015da	0.2814167
223	0x3cc0d896	0.023540776
224	0xbdb78fe8	-0.08962995
225	0x3d1ed0e3	0.03877343
226	0x3dc27301	0.094945915
227	0x3dcaac64	0.09896162
228	0xbdbd0bf1	-0.09230793
229	0x3e6156a7	0.22005711
230	0x3d4ea683	0.050451767
231	0x3d51174f	0.05104762
232	0x3e2b8ac8	0.1675216
233	0x3e8ecccb	0.2789062
234	0xbe92b86b	-0.28656325
235	0xbe4a37ae	-0.19747803
236	0xbcc38213	-0.023865735
237	0x3eb968ab	0.36212668
238	0xbe87c849	-0.26519993
239	0xbdad1b8f	-0.08452522
240	0x3e3d67c2	0.18496612
241	0x3b850516	0.004059444
242	0x3e1aa0b9	0.15100373
243	0x3bbde4dc	0.0057951044
244	0x3da84903	0.08217051
245	0x3ebeb1ca	0.37245017
246	0xbddf944c	-0.10916957
247	0xbe8e9081	-0.27844623
248	0x3e01ef47	0.12688933
249	0xbe83d68d	-0.25749627
250	0x3d9ae243	0.07562687
251	0xbe3f63e1	-0.18690445
252	0x3e94b725	0.29045978
253	0x3d97b29e	0.074071154
254	0xbe3d7796	-0.1850265
255	0xbc7b8cd4	-0.0153534

layers.0.mamba.conv1d.weight f4 [256, 1, 4]
0	0xbebdfb26	-0.37105674
1	0xbe3ef2b5	-0.18647273
2	0x3ce85934	0.028362848
3	0xbe39afdc	-0.18133491
4	0xbee39a26	-0.44453543
5	0x3d93f70e	0.07224856
6	0xbe85624f	-0.26051566
7	0xbe676eac	-0.22600812
8	0xbebcd391	-0.36880162
9	0x3d50a77a	0.050940968
10	0x3cbf68d1	0.02336541
11	0xbdd64f43	-0.10464337
12	0x3d5b8a22	0.05359853
13	0x3c7a17e3	0.015264484
14	0x3d61bb96	0.055110537
15	0x3ea9c5e6	0.33158797
16	0x3e8cd4b3	0.27506027
17	0xbe0c8655	-0.13723119
18	0x3ce7a5c4	0.028277285
19	0xbe56c647	-0.20974074
20	0x3e888f89	0.2667201
21	0xbde83d69	-0.11339838
22	0xbec2f29b	-0.38075718
23	0xbe4e5c63	-0.2015243
24	0xbe56eca5	-0.2098871
25	0x394f89e8	0.00019792432
26	0xbe8254f7	-0.25455448
27	0xbe6a8a53	-0.22904329
28	0x3d274a1f	0.04084217
29	0xbe6e6c94	-0.23283607
30	0xbe7537a7	-0.23947011
31	0x3e65ab5b	0.22428648
32	0xbebf06a8	-0.37309766
33	0xbe334952	-0.17508438
34	0xbd0a62a9	-0.033785496
35	0x3da3e2be	0.08002232
36	0x3e85e59f	0.2615175
37	0x3d408c39	0.047008727
38	0xbeb927c3	-0.36163148
39	0xbe12883d	-0.14309783
40	0xbe818e8f	-0.25304076
41	0xbde582ce	-0.1120659
42	0x3e532620	0.20620012
43	0xbec14b41	-0.37752727
44	0xbe74e344	-0.2391482
45	0xbe951df9	-0.2912443
46	0xbe7c7f40	-0.24657917
47	0x3d9a1e95	0.07525364
48	0x3e3b3d9d	0.18285222
49	0x3c43eb95	0.011958023
50	0xbe56531e	-0.20930144
51	0xbe3c48c6	-0.18387136
52	0xbe6a7ca9	-0.22899117
53	0xbeaaa62f	-0.33329913
54	0x3e957bdd	0.29196063
55	0x3daa320c	0.08310327
56	0x3e8c2150	0.27369165
57	0x3ed1c03e	0.40966982
58	0x3e669961	0.22519447
59	0xbe713a88	-0.23557484
60	0xbcb8135f	-0.022470174
61	0xbe4d39e8	-0.2004162
62	0xbe9dba61	-0.30806258
63	0xbcd4b48f	-0.025965003
64	0x3e821079	0.25403193
65	0x3e812d0b	0.25229678
66	0x3e903c1d	0.28170863
67	0xbd5e9393	-0.054339956
68	0x3eed067a	0.46294004
69	0x3de8615d	0.113466956
70	0x3ecce1e6	0.40016097
71	0x3da41765	0.08012275
72	0xbd469bbb	-0.04848836
73	0xbea1bf9e	-0.31591505
74	0xbe565885	-0.20932205
75	0xbe75ceb4	-0.24004632
76	0xbdb23ed0	-0.08703387
77	0xbe82a454	-0.25515997
78	0xbe9bd16c	-0.30433214
79	0x3e0a1e2a	0.13488069
80	0xbede3f49	-0.43407658
81	0x3db73091	0.0894481
82	0x3d5086ff	0.050909992
83	0x3db760dd	0.08954022
84	0xbe578f81	-0.21050836
85	0xbd477cac	-0.04870288
86	0xbe918cd0	-0.28427744
87	0xbea75af6	-0.32686585
88	0xbe2fef66	-0.17181167
89	0xbe81d18d	-0.25355187
90	0xbe976e78	-0.29576468
91	0xbe95df30	-0.2927184
92	0x3f02b2a5	0.5105384
93	0x3e63f4d2	0.2226136
94	0xbe39cdeb	-0.18144958
95	0xbe1e3165	-0.1544853
96	0xbebaf95a	-0.36518365
97	0x3ead8cb3	0.33896407
98	0xbd68a3da	-0.056796886
99	0xbe28296e	-0.16422054
100	0xbe4e6a50	-0.20157743
101	0xbe9f9236	-0.31166238
102	0xbe8bf419	-0.2733467
103	0x3e252082	0.16125682
104	0xbe892835	-0.26788488
105	0xbe22a604	-0.15883642
106	0xbe955599	-0.29166868
107	0xbd79b402	-0.060962684
108	0xbe1510fb	-0.14557259
109	0xbf00f46e	-0.5037297
110	0xbd4feb0e	-0.050761275
111	0xbe05f679	-0.13082303
112	0xbba703d2	-0.005096891
113	0x3e233027	0.15936337
114	0x3ef3da65	0.4762756
115	0xbe6cf074	-0.231386
116	0xbea6bb4d	-0.32564774
117	0xbe6145b1	-0.21999241
118	0xbd089fa9	-0.03335539
119	0x3e01ec7b	0.12687866
120	0xbea4a7c5	-0.32159248
121	0xbe512353	-0.20423631
122	0x3b2f663f	0.0026763824
123	0xbd641142	-0.05568052
124	0xbf0db8b2	-0.5535995
125	0xbed0e6ff	-0.40801236
126	0xbf06acb6	-0.52607286
127	0xbe92b663	-0.28654775
128	0x3d940eeb	0.07229408
129	0xbec00f26	-0.37511557
130	0x3e073f95	0.13207848
131	0x3e01a16e	0.12659237
132	0xbe72bc9b	-0.2370476
133	0xbde57993	-0.11204829
134	0x3e2f50db	0.17120688
135	0x3e63fc97	0.22264324
136	0x3ec75c57	0.38937637
137	0xbd49a491	-0.04922921
138	0x3d273068	0.04081765
139	0xbcd06b73	-0.02544186
140	0x3db61bc7	0.08892017
141	0xbe042f30	-0.12908626
142	0xbeb7ac2e	-0.3587355
143	0xbd261c30	-0.040554225
144	0xbea1adf4	-0.31578028
145	0xbe579394	-0.2105239
146	0xbe54a14d	-0.20764656
147	0x3ce43fc8	0.027862445
148	0xbe548fbd	-0.20757957
149	0x3cd68742	0.026187543
150	0xbe73027f	-0.23731421
151	0xbe85d685	-0.26140228
152	0x3e9dd60a	0.3082736
153	0x3ea1f2f9	0.31630686
154	0x3ec17576	0.37784928
155	0x3e6519fe	0.22373196
156	0x3d6834eb	0.05669109
157	0xbea59091	-0.32336858
158	0xbed69dd7	-0.41917297
159	0xbd2432b3	-0.040087413
160	0xbefb6e16	-0.49107426
161	0xbe4b0e9c	-0.19829792
162	0x3dd30616	0.10303895
163	0x3e1b38cc	0.15158385
164	0x3d9c0bc8	0.076194346
165	0x3dd98aa7	0.10622149
166	0xbcf824eb	-0.030291041
167	0xbe971b28	-0.29512906
168	0x3eadf5c1	0.33976558
169	0x3e4f6ade	0.2025561
170	0x3e885f3a	0.26635152
171	0x3e890c2a	0.26767093
172	0x3e23d502	0.15999225
173	0xbdc503ff	-0.09619903
174	0xbdd54714	-0.10413948
175	0x3ec58b95	0.38583055
176	0x3e78adfb	0.24285118
177	0x3dde380f	0.10850536
178	0x3e6f1460	0.23347616
179	0xbe7c9fd2	-0.24670342
180	0xbdf53d30	-0.11974561
181	0xbe68e5d3	-0.22743921
182	0xbe6c40db	-0.23071615
183	0xbe7ee10b	-0.24890535
184	0xbb8f02b8	-0.004364338
185	0xbe060a87	-0.13089953
186	0x3ea3973a	0.31951314
187	0xbdeaadde	-0.11458944
188	0xbe960317	-0.29299232
189	0xbde163db	-0.11005374
190	0xbe351755	-0.17684682
191	0xbcf3d330	-0.029763788
192	0x3e86ce6f	0.2632937
193	0x3cc6b7ff	0.024257658
194	0x3e23fa31	0.16013409
195	0xbe8b0ee9	-0.27159813
196	0x3e1219cf	0.14267658
197	0xbe39cfcf	-0.18145679
198	0x3e8f4915	0.27985445
199	0xbe63bd64	-0.22240216
200	0xbec0f2af	-0.37685153
201	0xbec783c7	-0.38967726
202	0xbe7616ea	-0.24032179
203	0xbe24b1b4	-0.16083413
204	0x3ec71948	0.38886476
205	0x3e37bad1	0.17942359
206	0xbe0db4c5	-0.1383849
207	0xbdcda0ec	-0.10040459
208	0x3e21c90c	0.1579935
209	0x3db5d605	0.088787116
210	0xbd9f59c8	-0.07780796
211	0xbea120d8	-0.3147037
212	0x3ddaca5f	0.106831305
213	0x3e85fca2	0.26169306
214	0xbdae9b00	-0.08525658
215	0xbeae80d8	-0.34082675
216	0x3e5a0fcd	0.2129509
217	0xbe03f259	-0.12885417
218	0xbe3e026d	-0.18555613
219	0x3e878609	0.26469448
220	0x3db7544c	0.08951625
221	0xbea4e2af	-0.32204196
222	0x3e9c67b1	0.3054786
223	0x3d2f7c93	0.042843413
224	0xbeb5225c	-0.35377777
225	0x3db1d080	0.08682346
226	0x3e629f18	0.22131002
227	0xbea9af6d	-0.33141652
228	0x3e42faf8	0.1904105
229	0x3e90f898	0.28314662
230	0x3e84949a	0.25894624
231	0x3e44f5ac	0.19234341
232	0xbed6b93d	-0.419382
233	0xbe33c728	-0.17556441
234	0xbeb1bfe6	-0.3471672
235	0x3dd62918	0.10457057
236	0x3d94f098	0.07272452
237	0x3de81376	0.11331837
238	0x3ea9f48c	0.33194387
239	0xbcc6490a	-0.02420475
240	0x3e67c563	0.22633891
241	0x3d9979ee	0.07493959
242	0xbe8e5bc0	-0.27804375
243	0xbdbd766b	-0.09251102
244	0xbe340417	-0.17579685
245	0xbcc796b7	-0.024363859
246	0x3e96970b	0.29412112
247	0xbe32a823	-0.17446952
248	0xbee62a5b	-0.4495419
249	0xbedd25c2	-0.4319287
250	0xbe89330d	-0.2679676
251	0xbd66c2fb	-0.05633829
252	0x3ddbcc9e	0.10732387
253	0xbec07094	-0.3758589
254	0xbeb71320	-0.3575678
255	0xbe0e649e	-0.1390557

layers.0.mamba.conv1d.bias f4 [256]
0	0xbcc0bbc6	-0.023527037
1	0xbe166dab	-0.14690273
2	0x3d9fee00	0.07809067
3	0xbe873f7b	-0.2641562
4	0x3d83c59d	0.06434176
5	0x3dacc4fe	0.08436011
6	0x3bd397bf	0.0064572985
7	0xbb80caa1	-0.0039304052
8	0xbda111de	-0.07864736
9	0x3c40029d	0.011719373
10	0xbd65505b	-0.055984836
11	0xbe774c08	-0.24150097
12	0xbcc82560	-0.024431884
13	0xbd7ff6d0	-0.062491238
14	0xbda3ade9	-0.07992155
15	0xbd945b6f	-0.07244002
16	0xbdfce775	-0.123488344
17	0xbe0722b1	-0.13196827
18	0xbce55553	-0.027994787
19	0xbd488298	-0.04895267
20	0xbe3b24e3	-0.1827579
21	0xbbba0900	-0.0056773424
22	0xbe29ac13	-0.16569547
23	0xbe89b293	-0.26894054
24	0xbe35304c	-0.17694205
25	0xbe26e08d	-0.16296597
26	0xbe996d2a	-0.29966098
27	0x3c2e1521	0.010625155
28	0xbe5c1dea	-0.21495786
29	0x3d9d0aa4	0.07668045
30	0x3e920418	0.28518748
31	0xbe2685c1	-0.1626196
32	0xbd7749df	-0.060373183
33	0xbd5743dc	-0.05255495
34	0x3d78d2d0	0.06074792
35	0xbe23ba4d	-0.15989037
36	0x3b92d205	0.0044806027
37	0xbda8257b	-0.08210274
38	0xbe0c28ec	-0.13687485
39	0xbd0ac70d	-0.033881236
40	0xbc4813a5	-0.012211715
41	0x3e13a718	0.1441921
42	0xbab31b18	-0.0013664691
43	0x3ce564b9	0.02800213
44	0xbbdffdd1	-0.006835677
45	0xbd02398f	-0.031793173
46	0xbe84e22b	-0.25953802
47	0x3d951dca	0.072810724
48	0x3d2d4b63	0.042308223
49	0xbe6490a8	-0.22320807
50	0x3bc753c6	0.0060829846
51	0xbd9a1446	-0.07523398
52	0xbd33cf6f	-0.043898996
53	0x3cf82946	0.030293118
54	0xbdecb953	-0.11558785
55	0x3d9472e5	0.07248477
56	0xbdecdcec	-0.11565575
57	0x3d94c3c9	0.072639056
58	0x3e51cfd6	0.2048944
59	0x3e64b441	0.22334386
60	0x3d8c6b6a	0.06856425
61	0x3c58bb78	0.01322829
62	0x3e15a1dd	0.14612527
63	0xbddb13f4	-0.10697165
64	0x3cf6bc7d	0.030119175
65	0x3da6b7c1	0.08140517
66	0xbd06d864	-0.03292121
67	0xbe0d1f10	-0.1378138
68	0xbe3cc25a	-0.18433514
69	0xbdd61bb3	-0.10454502
70	0xbd86adeb	-0.06576141
71	0x3ce7da3a	0.0283023
72	0xbcf55f64	-0.029952712
73	0xbd004f8b	-0.031325858
74	0xbe038ae9	-0.12845959
75	0xbd86c7e4	-0.06581095
76	0x3d76fb2c	0.06029813
77	0x3dcc37a7	0.09971552
78	0x3d42dfbb	0.047576647
79	0xbe25cae5	-0.1619068
80	0x3be39f0c	0.00694645
81	0xbd56541c	-0.052326307
82	0x3e702ad8	0.23453844
83	0x3c9705e6	0.01843543
84	0x3d509c54	0.050930336
85	0xbd24a064	-0.040192023
86	0xbdfbb27f	-0.12289905
87	0x3e16e927	0.14737378
88	0x3c4612c4	0.012089435
89	0xbd54d3bd	-0.05195974
90	0xbdf10455	-0.117684044
91	0x3e362255	0.17786534
92	0xbdbe7419	-0.092994876
93	0xbd034f81	-0.032058243
94	0x3d2cef6a	0.04222051
95	0xbdd4919c	-0.10379335
96	0x3d94c236	0.07263605
97	0xbe3fb08b	-0.1871969
98	0xbc9a1e5d	-0.018813306
99	0x3d643b90	0.055720866
100	0xbe2f3dce	-0.1711342
101	0xbd0e7276	-0.034777127
102	0x3d95114c	0.0727869
103	0x3d929871	0.07157982
104	0xbd978d78	-0.0740003
105	0xbe409d3e	-0.18809983
106	0x3cc7eb36	0.02440415
107	0xbd615e21	-0.05502141
108	0xbd1e12e0	-0.03859222
109	0x3d12f424	0.035877362
110	0xbd6e5402	-0.058185585
111	0xbe1d8834	-0.15383989
112	0x3d8953fd	0.067054726
113	0xbdd58a9a	-0.10426827
114	0x3d44bee5	0.048033614
115	0xbe82456d	-0.25443593
116	0xbe856457	-0.26053116
117	0x3dbf65cb	0.09345587
118	0xbd60d49a	-0.054890253
119	0xbd9fd4b0	-0.07804239
120	0x3d213e86	0.039366268
121	0x3bfe9d8c	0.007770246
122	0x3dcb9d87	0.09942155
123	0xbdec16ec	-0.115278095
124	0xbd236f20	-0.0399009
125	0xbe425925	-0.18979318
126	0xbe14c3fd	-0.14527889
127	0xbd1d52ef	-0.03840917
128	0xbcd9b41d	-0.026575143
129	0xbccf16c7	-0.025279416
130	0xbe2726f5	-0.16323455
131	0xbd315369	-0.043292437
132	0xbda36a5a	-0.07979269
133	0xbbbe960d	-0.0058162273
134	0xbdc08a61	-0.09401394
135	0xbd99b5f2	-0.075054064
136	0xbbc373e4	-0.005964743
137	0xbc170812	-0.009218233
138	0x3c18ca22	0.009325536
139	0xbc236897	-0.009973667
140	0xbd5a18b4	-0.053246215
141	0xbe612016	-0.21984896
142	0xbcd5f32c	-0.02611693
143	0xbd9a970a	-0.0754834
144	0x3dbe7113	0.09298911
145	0xbe41f4bb	-0.18941014
146	0x3c88bd22	0.016691748
147	0xbcae8897	-0.021305365
148	0xba7a162a	-0.0009540046
149	0xbd5584b6	-0.052128516
150	0xbde71321	-0.112829454
151	0xbe1587e6	-0.14602622
152	0x3bf6140c	0.007509714
153	0xbe103bf7	-0.14085375
154	0xbafb38fb	-0.0019166762
155	0xbd2ceb52	-0.042216606
156	0xbd7ba866	-0.061439894
157	0x3dfa2864	0.12214735
158	0xbdc47bdb	-0.09593936
159	0xbd9742f5	-0.07385818
160	0xbc088750	-0.008333042
161	0xbd5cc430	-0.053898036
162	0x3c8c55b0	0.017130703
163	0x3e04114e	0.12897226
164	0xbd3cd847	-0.046104696
165	0xbd892109	-0.06695754
166	0xbe00e890	-0.12588716
167	0x3e18f2a8	0.14936316
168	0x3db13828	0.08653289
169	0xbdd9b7ac	-0.10630736
170	0xbcae1671	-0.021250935
171	0xbdb15406	-0.08658604
172	0xbd5b77af	-0.053580936
173	0xbe3addac	-0.18248624
174	0xbd6c4d76	-0.05769106
175	0x3df8fd2f	0.12157666
176	0xbb1ff889	-0.0024409613
177	0x3d85d023	0.065338396
178	0x3c2c3b57	0.010512195
179	0xbc4fff62	-0.012695165
180	0xbcadc3b1	-0.021211477
181	0xbda2f456	-0.0795676
182	0x3d9f8409	0.077888556
183	0xbd6dea08	-0.058084518
184	0xbe34c57e	-0.17653462
185	0x3d954132	0.07287826
186	0x3d180773	0.03711648
187	0xbc72312b	-0.01478223
188	0x3d78ff64	0.060790434
189	0xbe3bcd8b	-0.18340127
190	0xbe12be9d	-0.14330526
191	0xbda9d7e3	-0.0829313
192	0x3e042d64	0.1290794
193	0xbb871106	-0.0041219024
194	0xbc60b2c5	-0.013714497
195	0xbe04393c	-0.12912458
196	0xbdb0a230	-0.08624685
197	0xbd6b298b	-0.057412665
198	0x3d0e89cd	0.034799386
199	0xbcba152f	-0.02271518
200	0xbc5eca54	-0.0135980435
201	0xbe215239	-0.15754022
202	0xbcc158c7	-0.023601903
203	0xbe49bec9	-0.19701685
204	0x3dc5ada9	0.09652264
205	0x3e5c96ed	0.21541949
206	0xbe149f01	-0.1451378
207	0xbd578e05	-0.052625675
208	0xbeb2cd16	-0.34922093
209	0xbd5e94aa	-0.054340996
210	0x3c29ebe8	0.010371186
211	0xbc80284a	-0.015644211
212	0xbdd9e462	-0.10639264
213	0xbdc04937	-0.093889646
214	0xbdae6916	-0.08516137
215	0xbe2e6974	-0.17032415
216	0xbe80790b	-0.25092348
217	0x3bba5305	0.005686166
218	0xbd505724	-0.050864354
219	0x3bec2af0	0.007207267
220	0xba81c03d	-0.000989921
221	0xbd54a2a9	-0.051912937
222	0xbda15e6b	-0.07879337
223	0xbe22b069	-0.15887608
224	0xbdb47ae8	-0.08812505
225	0xbe9a7547	-0.301676
226	0x3cf5606e	0.029953208
227	0x3a1d7dbd	0.0006007811
228	0xbcd623f3	-0.026140189
229	0xbda8be7b	-0.08239456
230	0xbe0d7561	-0.13814308
231	0xbd84ba95	-0.064809
232	0xbe13789c	-0.14401478
233	0xbd3ab0c1	-0.045578722
234	0xbdde668b	-0.10859402
235	0xbe0a1221	-0.13483478
236	0xbdc7ccde	-0.09755872
237	0x3d5d9087	0.05409291
238	0xbd0e526c	-0.034746572
239	0xbdd2aae6	-0.102865025
240	0xbcd8b69b	-0.02645426
241	0xbd1e351f	-0.03862488
242	0x3decef7f	0.11569118
243	0xbd65852c	-0.056035206
244	0xbd36bdff	-0.04461479
245	0xbd5ce669	-0.053930674
246	0xbdd5c704	-0.1043835
247	0xbcb02764	-0.021503158
248	0xbd21fe3f	-0.03954911
249	0x3d744d0b	0.059643786
250	0xbc3a22c1	-0.011360825
251	0xbc6f6491	-0.014611379
252	0xbba0f044	-0.0049114544
253	0xbdde944f	-0.10868131
254	0x3e856acb	0.2605804
255	0x3d4ddc8f	0.05025917

layers.0.mamba.norm.weight f4 [128]
0	0x3e9e3038	0.30896163
1	0x3e5c7f46	0.21532926
2	0x3e8634a1	0.26212028
3	0x3f2477f1	0.64245516
4	0x3e79c9ec	0.24393433
5	0x3e12dc28	0.14341795
6	0x3e9f62f4	0.31130183
7	0x3e9a3d7e	0.3012504
8	0x3e4ceac1	0.20011427
9	0x3e983b17	0.29732582
10	0x3e82814d	0.25489274
11	0x3e8532d7	0.2601535
12	0x3e8d19d0	0.27558756
13	0x3e8cd65a	0.27507287
14	0x3e490f12	0.19634655
15	0x3ec99cd3	0.3937746
16	0x3e6ea7f3	0.23306255
17	0x3e949bba	0.2902506
18	0x3e6dca04	0.23221594
19	0x3eb8d683	0.3610116
20	0x3eada98e	0.33918422
21	0x3ebc74be	0.36807817
22	0x3e6e0a1b	0.23246042
23	0x3e6c9897	0.23105083
24	0x3eaaa4be	0.33328813
25	0x3e2b204a	0.16711536
26	0x3ebe7620	0.37199497
27	0x3e6b8d11	0.23003031
28	0x3e8124f4	0.25223505
29	0x3e8c3339	0.2738283
30	0x3e8c8115	0.27442232
31	0x3ea79221	0.32728675
32	0x3eb1aa82	0.347004
33	0x3e9286fe	0.28618616
34	0x3eb705f3	0.35746726
35	0x3eddc20c	0.4331211
36	0x3eaa9413	0.33316097
37	0x3e8ee3e4	0.27908242
38	0x3ed0c60a	0.40776092
39	0x3e891232	0.26771694
40	0x3eb3f8ed	0.35150853
41	0x3e71ea95	0.23624642
42	0x3e24bfb3	0.16088752
43	0x3eb885a5	0.36039463
44	0x3eab8180	0.33497238
45	0x3e3e40ad	0.1857936
46	0x3ede2f91	0.43395665
47	0x3e7e8b78	0.2485789
48	0x3e6ff1b1	0.23432042
49	0x3e8fcfe3	0.28088292
50	0x3e60e1d9	0.21961154
51	0x3e90dcd9	0.28293493
52	0x3eb56df8	0.35435462
53	0x3e906b2c	0.28206766
54	0x3eb77250	0.358294
55	0x3e9b58de	0.30341238
56	0x3e8d3413	0.27578792
57	0x3e323218	0.17401922
58	0x3edfe983	0.43732843
59	0x3ea0ccea	0.31406337
60	0x3e8b9042	0.27258497
61	0x3e86f179	0.26356104
62	0x3eaef0a4	0.3416797
63	0x3e6ef840	0.23336887
64	0x3d479728	0.04872814
65	0x3eca9921	0.39569953
66	0x3ea51f5c	0.32250488
67	0x3eaa7369	0.33291176
68	0x3e8da087	0.27661535
69	0x3e8bdfe7	0.2731926
70	0x3eaf6643	0.34257707
71	0x3e92e8ef	0.2869334
72	0x3e9bc246	0.30421656
73	0x3e8c0ea4	0.2735492
74	0x3e902022	0.28149515
75	0x3e826e4d	0.25474778
76	0x3e5a4a6d	0.21317454
77	0x3eae42af	0.3403525
78	0x3e88504e	0.26623768
79	0x3e6b6521	0.22987796
80	0x3ea79509	0.32730892
81	0x3ea466dc	0.32109725
82	0x3da51ec3	0.08062508
83	0x3ea43dbb	0.32078347
84	0x3e9c13ed	0.30483952
85	0x3ea754d8	0.32681918
86	0x3e8ba95d	0.2727765
87	0x3ea842ad	0.3286337
88	0x3e49e030	0.19714427
89	0x3e906491	0.28201726
90	0x3ec77716	0.38958043
91	0x3eca5b7e	0.39522928
92	0x3e9c6d98	0.30552363
93	0x3eeb5393	0.459622
94	0x3e83e679	0.25761774
95	0x3e82ef59	0.25573233
96	0x3e89c2f0	0.26906538
97	0x3e591369	0.2119881
98	0x3e97855b	0.2959393
99	0x3e9b8ca2	0.30380732
100	0x3e538508	0.20656216
101	0x3e51b87f	0.20480536
102	0x3e8668c5	0.26251808
103	0x3e8c9869	0.2746003
104	0x3e6402af	0.22266649
105	0x3e6f5a98	0.23374403
106	0x3e7e3337	0.24824224
107	0x3e933a0f	0.28755233
108	0x3e670518	0.22560537
109	0x3e84e00b	0.2595218
110	0x3e984751	0.2974191
111	0x3e4fc8b1	0.20291401
112	0x3e71c8c2	0.2361174
113	0x3e9a6d13	0.30161342
114	0x3e7ae53f	0.24501513
115	0x3ec169a9	0.37775925
116	0x3f04c126	0.5185722
117	0x3e7e6b52	0.24845627
118	0x3e85f509	0.2616351
119	0x3e6323e5	0.22181661
120	0x3e8bebf6	0.2732846
121	0x3eee680f	0.46563765
122	0x3e96d836	0.2946183
123	0x3e9bb076	0.30408067
124	0x3e7deccc	0.24797362
125	0x3ead38d2	0.33832413
126	0x3e82e160	0.25562572
127	0x3e60cc76	0.21952996

layers.0.mamba.out_proj.weight f4 [64, 128]
0	0xbdf92325	-0.121649064
1	0x3e069886	0.1314412
2	0xbe2d5320	-0.16926241
3	0xbe8fd003	-0.28088388
4	0x3d49ac89	0.049236808
5	0xbde2c36e	-0.110724315
6	0xbcd3d18a	-0.025856752
7	0xbdc41a81	-0.09575368
8	0x3dfb711e	0.12277435
9	0xbdb64ee8	-0.08901769
10	0x3e73969b	0.2378792
11	0x3e3e548c	0.1858694
12	0xbdc1be15	-0.094600834
13	0x3d2fec65	0.042950053
14	0x3dd429f0	0.103595614
15	0xbda1498f	-0.07875358
16	0xbcbbe915	-0.02293829
17	0x3e9ffdef	0.31248423
18	0xbd76a34a	-0.06021432
19	0xbe2b41bc	-0.16724294
20	0x3e96ff8e	0.29491848
21	0x3dae9fb9	0.085265584
22	0x3ee0b231	0.4388595
23	0x3ed00c7b	0.40634522
24	0xbcbcd979	-0.023052918
25	0x3d8f754d	0.07004795
26	0xbe9c35ae	-0.30509704
27	0xbd3939fb	-0.04522131
28	0x3e5cd048	0.21563828
29	0xbd291c23	-0.0412866
30	0x3e7a18f1	0.24423577
31	0xbd01157c	-0.03151463
32	0xbead0430	-0.33792257
33	0xbe4159b1	-0.18881871
34	0x3d6e9a0b	0.058252376
35	0xbd4c3f72	-0.049865194
36	0x3d743281	0.059618477
37	0xbdb56df1	-0.0885886
38	0x3dc15f50	0.094420075
39	0x3eb62125	0.35572162
40	0xbd8f234d	-0.06989155
41	0x3ea0cac0	0.31404686
42	0xbd3d7049	-0.04624966
43	0xbe05a4ed	-0.13051195
44	0x3ea5190b	0.3224567
45	0x3e273dc3	0.16332154
46	0xbd75fce2	-0.06005562
47	0x3e214d64	0.15752178
48	0xbde4d896	-0.11174123
49	0x3c3770e3	0.011196348
50	0x3d992a23	0.0747874
51	0x3d5a54d1	0.053303543
52	0xbeb4a2f8	-0.35280585
53	0x3d18a207	0.037263896
54	0x3e928707	0.28618643
55	0x3db3d71d	0.08781264
56	0x3e5cc569	0.21559681
57	0xbda4d25a	-0.08047934
58	0x3b5584cd	0.0032580376
59	0x3db9fcfc	0.09081456
60	0x3e081539	0.13289346
61	0xbe67da1c	-0.22641796
62	0x3e878dc7	0.26475355
63	0x3d81fa7e	0.06346606
64	0xbe0f8096	-0.14013895
65	0xbe23c80b	-0.15994279
66	0xbe2420da	-0.16028157
67	0x3e2be8c7	0.16788016
68	0x3e204cdc	0.1565432
69	0x3d2250bb	0.03962777
70	0x3e43e59e	0.19130561
71	0x3e318ab8	0.17338073
72	0x3e98a67c	0.29814517
73	0x3d213915	0.03936108
74	0xbe5460b6	-0.20740017
75	0xbd87b7d5	-0.0662686
76	0xbdc5305f	-0.09628367
77	0x3e1563a9	0.14588799
78	0x3dc1661a	0.094433025
79	0x3e8fa52a	0.28055698
80	0x3ec8e388	0.39236093
81	0x3c878e61	0.016547384
82	0xbe0514a7	-0.1299616
83	0xbe84efd5	-0.25964227
84	0xbd89d52c	-0.067301124
85	0xbbcc4b2f	-0.0062345485
86	0x3eac2386	0.33620852
87	0x3e4c1d99	0.19933166
88	0xbda3c724	-0.079969674
89	0xbe9a768b	-0.30168566
90	0xbe39abaf	-0.18131898
91	0x3dc6f253	0.097141884
92	0x3d584b43	0.05280615
93	0x3dcd0114	0.10009971
94	0xbc7ebe3c	-0.015548285
95	0x3e2cb118	0.16864431
96	0xbe780cdc	-0.24223655
97	0xbe9f72bb	-0.3114222
98	0xbe515fcd	-0.20446701
99	0xbeae577e	-0.34051126
100	0x3e8e516e	0.277965
101	0x3d6c2f44	0.057662264
102	0x3eb3c5a0	0.35111713
103	0xbcaacd2f	-0.020849792
104	0x3e0acfbb	0.13555805
105	0xbda935f0	-0.08262241
106	0x3ec28ecd	0.37999573
107	0xbddf339c	-0.108985156
108	0x3d894ea8	0.067044556
109	0xbdc6cfda	-0.09707613
110	0x3d0afcd4	0.033932522
111	0x3936c373	0.00017429683
112	0xbe5de954	-0.21671039
113	0xbe8ea332	-0.27858883
114	0xbe90e1b1	-0.2829719
115	0xbe871137	-0.2638032
116	0xbe7ee035	-0.24890216
117	0xbe523c0c	-0.20530719
118	0xbe0ba5bc	-0.13637441
119	0x3e813097	0.25232384
120	0xbdb73b28	-0.0894683
121	0x3d7215c3	0.059102785
122	0x3e71efbb	0.23626606
123	0x3d985f67	0.074400716
124	0x3e639bfc	0.22227472
125	0x3d1254c8	0.035725385
126	0xbe597e16	-0.21239504
127	0xbb1e4206	-0.002414824
128	0x3caef8d7	0.02135889
129	0x3ea5d78f	0.3239102
130	0xbdd3acd5	-0.103356995
131	0xbd05c311	-0.032656733
132	0xbe3b69c5	-0.18302067
133	0xbd1fee9b	-0.03904591
134	0xbdc1fe2a	-0.09472306
135	0xbe6dc334	-0.23218995
136	0x3e8e14cb	0.2775024
137	0x3e9b7277	0.30360767
138	0x3e5d322b	0.21601169
139	0x3df9081a	0.121597484
140	0x3c87e80c	0.01659014
141	0x3e3055c2	0.17220214
142	0x3e531444	0.206132
143	0xbde979b3	-0.114001654
144	0xbc02bbe1	-0.007979364
145	0xbc93b81c	-0.018032126
146	0x3aec5c9d	0.0018032972
147	0xbec4631a	-0.38356858
148	0x3eb21a28	0.3478558
149	0xbe63048b	-0.22169702
150	0x3d7094df	0.058735725
151	0x3d0b8bb6	0.034068786
152	0xbe3da6b2	-0.1852062
153	0x3e239797	0.15975796
154	0xbebbac29	-0.36654785
155	0xbd570feb	-0.052505415
156	0x3e0daac4	0.13834673
157	0x3e26c6ec	0.1628682
158	0x3d9ba7da	0.076003745
159	0xbd9db7bf	-0.077010624
160	0xbe5b4c32	-0.21415785
161	0xbdba6cf5	-0.09102813
162	0xbd6292a0	-0.055315614
163	0xbd852e38	-0.06502956
164	0x3dd947c3	0.106093906
165	0x3c85c59f	0.016329585
166	0xbdf884c1	-0.12134696
167	0x3e8e5756	0.27801007
168	0xbe8905ec	-0.2676233
169	0xbe5717cb	-0.2100517
170	0xbd30e124	-0.04318346
171	0xbeeb42be	-0.45949358
172	0x3d95c0d2	0.07312168
173	0xbe7d1a4f	-0.24717067
174	0xbe5b4385	-0.21412475
175	0xbe04308b	-0.12909143
176	0x3e0aa4e8	0.13539469
177	0x3e7e9dcb	0.2486488
178	0x3e3a230d	0.18177433
179	0xbca26f36	-0.01982842
180	0xbd31ceb0	-0.043410003
181	0x3b5fc780	0.003414601
182	0x3e924d60	0.28574657
183	0x3ca54ace	0.020177271
184	0x3e9534e1	0.29141906
185	0xbe5175ba	-0.20455065
186	0x3da10580	0.07862377
187	0x3d21be72	0.039488263
188	0xbe23a9c1	-0.15982725
189	0xbe9efb34	-0.31051028
190	0xbd2444aa	-0.040104546
191	0x3e722fef	0.23651098
192	0x3d29b3a9	0.041431103
193	0xbdd5889f	-0.10426449
194	0xbe990a6c	-0.29890764
195	0x3e8f9898	0.28046107
196	0xbe193d7b	-0.14964859
197	0x3e0d724a	0.13813129
198	0xbe849f7b	-0.25902924
199	0xbe030389	-0.12794317
200	0x3d710d5b	0.058850627
201	0x3e38bc0e	0.18040487
202	0x3d27ab35	0.04093476
203	0x3dc1dae6	0.0946558
204	0x3bae1f69	0.005313803
205	0xbe108b21	-0.14115573
206	0x3e81d8b9	0.2536066
207	0xbd38c8fc	-0.04511355
208	0x3e5aa4bd	0.21351905
209	0x3d2b73b7	0.0418584
210	0x3eb0a302	0.34499365
211	0xbe7bf2be	-0.24604318
212	0xbeb04530	-0.34427786
213	0xbe0e46c7	-0.13894187
214	0xbcbf00d3	-0.023315823
215	0x3e01f69f	0.12691735
216	0xbe42ed71	-0.19035889
217	0xbeb5d251	-0.3551202
218	0xbe36bec1	-0.17846204
219	0x3e1e8866	0.1548172
220	0xbe8ba95c	-0.27277648
221	0x3c89ff00	0.016845226
222	0xbe30b3cc	-0.17256087
223	0x3dde3eef	0.108518474
224	0x3dcab1ac	0.098971695
225	0x3d32690b	0.043557208
226	0x3e93d1ec	0.28871095
227	0xbd3c5896	-0.04598292
228	0x3db6f0b7	0.089326315
229	0xbc84b26e	-0.016198363
230	0x3cd852eb	0.026406726
231	0xbe59f698	-0.21285474
232	0x3df8d87e	0.121506676
233	0xbe8e6082	-0.27808005
234	0xbd6f37cd	-0.058402825
235	0x3d59afe9	0.053146277
236	0xbe84e695	-0.2595717
237	0x3d62f6d6	0.055411182
238	0xbdacd312	-0.08438696
239	0x3cd92b32	0.026509855
240	0x3e2ce302	0.16883472
241	0x3daaf368	0.08347207
242	0xbe8669ec	-0.26252687
243	0xbe45509e	-0.19269034
244	0xbea59f7d	-0.32348242
245	0xbb72baa9	-0.0037037528
246	0x3ddada9b	0.10686227
247	0x3e18e9ae	0.14932892
248	0xbdf0f373	-0.11765184
249	0xbe156f77	-0.14593302
250	0x3d7028e5	0.05863275
251	0x3e94da68	0.2907288
252	0xbea08fb8	-0.3135965
253	0x3e8c6e9d	0.2742814
254	0x3e939051	0.28821042
255	0x3b68c616	0.003551846

layers.0.norm.weight f4 [64]
0	0x3ed439ba	0.41450292
1	0x3f508a0e	0.81460655
2	0x3f1330fa	0.5749661
3	0x3f14b090	0.58081913
4	0x3f0b2687	0.54355663
5	0x3ef38d34	0.47568667
6	0x3ec0837b	0.37600312
7	0x3f09462c	0.536227
8	0x3ee2f3ca	0.4432662
9	0x3f13d566	0.57747495
10	0x3f0adab4	0.54239964
11	0x3ef83b66	0.48482817
12	0x3ef74520	0.48294926
13	0x3ef3c377	0.47610065
14	0x3ea7421e	0.3266763
15	0x3eea7b41	0.4579716
16	0x3f0ced14	0.5504925
17	0x3ef73663	0.4828368
18	0x3eaf494f	0.34235618
19	0x3ee5e39d	0.44900218
20	0x3ed6fedd	0.4199132
21	0x3f06abd0	0.52605915
22	0x3ef7977e	0.48357767
23	0x3f446baf	0.7672681
24	0x3f005261	0.501257
25	0x3f13980a	0.5765387
26	0x3edc9d6c	0.43088853
27	0x3ec377ca	0.3817733
28	0x3eecb3d4	0.46230948
29	0x3f125487	0.5716023
30	0x3ee7364a	0.45158607
31	0x3ec2faf9	0.38082102
32	0x3eead601	0.45866397
33	0x3f13fd39	0.5780826
34	0x3ed223ff	0.41043088
35	0x3ee3ad88	0.4446833
36	0x3e991e9b	0.29906163
37	0x3efd52a3	0.4947711
38	0x3f11a90d	0.56898576
39	0x3f16c9b9	0.58901554
40	0x3f00b949	0.5028272
41	0x3eff69c3	0.49885377
42	0x3ee112ae	0.43959564
43	0x3efc8d5a	0.49326593
44	0x3f04d113	0.5188152
45	0x3ef87768	0.485286
46	0x3ec572d6	0.38564175
47	0x3ec53b53	0.38521823
48	0x3ee68554	0.45023596
49	0x3f0058d1	0.50135523
50	0x3efd3a73	0.49458656
51	0x3ea82723	0.3284236
52	0x3ec661f5	0.3874661
53	0x3f08e341	0.5347176
54	0x3ebf8094	0.37402785
55	0x3ef6923e	0.4815845
56	0x3f08aba5	0.5338691
57	0x3ed5cece	0.41759342
58	0x3ee09445	0.4386312
59	0x3f23b688	0.63950396
60	0x3ed4d909	0.41571835
61	0x3ec78632	0.3896957
62	0x3f05e481	0.52301794
63	0x3edc1f26	0.42992514

layers.0.norm.bias f4 [64]
0	0x3d208e0a	0.03919796
1	0xbc1baadb	-0.009501184
2	0x3d5cd793	0.053916525
3	0xbcd446ae	-0.025912609
4	0xbadfa259	-0.0017061933
5	0xbd2804f4	-0.04102035
6	0xbcaaa268	-0.020829394
7	0xbcca0001	-0.024658205
8	0x3d6d14b2	0.057881065
9	0x3c4c0514	0.012452383
10	0xbcdd0a6d	-0.02698251
11	0x3d56802e	0.052368335
12	0x3cbb55be	0.022868033
13	0xbc302efc	-0.010753389
14	0x3c9e1f65	0.01930208
15	0x3cf67ece	0.030089762
16	0xbd27afd3	-0.040939163
17	0xbbbe998d	-0.0058166445
18	0xbd0cfdb3	-0.034421634
19	0x3c14128a	0.009037623
20	0xbc9a4b2b	-0.018834671
21	0xbcee2ee0	-0.029075086
22	0x3cfb8c81	0.030706646
23	0xbd1d8cab	-0.03846423
24	0xba378514	-0.0007000726
25	0x3c75f9e9	0.0150131965
26	0xbce3a0b7	-0.027786596
27	0xbb5c1f3d	-0.0033587955
28	0xbca52ba6	-0.020162415
29	0x3cf911bb	0.030403962
30	0xbd14b23c	-0.03630279
31	0xbd18c4dd	-0.03729712
32	0xbc513537	-0.012769035
33	0xbd2e9af5	-0.042628247
34	0x3b16998e	0.002297971
35	0xbcbdcf51	-0.023170145
36	0xbd357785	-0.044303436
37	0x3c113630	0.008863017
38	0x3cd21b03	0.025647646
39	0xbcbbcc17	-0.022924466
40	0x3b60bd2d	0.0034292445
41	0xbb1a22b9	-0.0023519231
42	0xbca00783	-0.019534832
43	0x3d3b29b1	0.045694057
44	0xbc96d0be	-0.018410083
45	0xbd7d5e8f	-0.061857756
46	0x3bd26249	0.006420408
47	0x3d6d4f3d	0.057936896
48	0xbd01f5b1	-0.03172845
49	0x3d854ce8	0.06508809
50	0xbbc9c7fd	-0.0061578737
51	0xbd043afe	-0.03228282
52	0x3cabbed1	0.020965012
53	0xbc70f6a7	-0.014707244
54	0x3d689e2e	0.056791477
55	0x3b6862a1	0.0035459178
56	0xbd453f5e	-0.048156135
57	0xbbac6603	-0.005261184
58	0x3b480dd2	0.0030525816
59	0xbcb56090	-0.022140771
60	0xbc9b5485	-0.0189612
61	0xbcf58411	-0.0299702
62	0x3cbcabbb	0.023031106
63	0xbd3b3fb4	-0.04571505

layers.1.proj.weight f4 [64, 64]
0	0x3e224cc8	0.15849602
1	0xbe395190	-0.1809752
2	0xbca919b5	-0.02064214
3	0x3c90db1c	0.017682604
4	0xbe430428	-0.19044554
5	0x3de62101	0.11236764
6	0xbde41e33	-0.111385725
7	0x3e254da6	0.16142902
8	0xbe214d7b	-0.15752213
9	0xbe75b0b8	-0.23993194
10	0x3e2f8e05	0.1714402
11	0xbde00568	-0.10938531
12	0xbebe6b47	-0.3719122
13	0x3dd4faf8	0.10399431
14	0x3e1502db	0.1455187
15	0x3dc9a15b	0.09845229
16	0x3e083acb	0.13303678
17	0xbbd62587	-0.0065352353
18	0x3dd0bacb	0.10191878
19	0xbd2d0bb4	-0.04224749
20	0x3d3bc6f6	0.04584404
21	0xba82c8dd	-0.0009978075
22	0x3da25a34	0.07927361
23	0x3e39a264	0.18128353
24	0x3e66df1c	0.22546047
25	0x3e7f3ed8	0.24926317
26	0x3c61ab18	0.013773702
27	0x3e8d49fd	0.2759551
28	0xbbfa6fb8	-0.0076427124
29	0xbe4ea6e5	-0.20180853
30	0x3de37b0d	0.111074544
31	0x3d10ec4f	0.03538161
32	0xbeb1ba1b	-0.347123
33	0x3e3f7eda	0.18700734
34	0x3cd86bce	0.026418593
35	0x3e5614ea	0.20906416
36	0x3e908bd1	0.2823167
37	0xbe88c7d8	-0.2671497
38	0x3c6812a3	0.0141646
39	0x3e36964b	0.1783077
40	0xbdbc12d5	-0.091832794
41	0x3c13f006	0.009029394
42	0xbe163e60	-0.14672232
43	0x3d9c6f71	0.07638443
44	0xbdc119e9	-0.0942877
45	0xbdb9adcf	-0.090663545
46	0xbd3404c9	-0.043949876
47	0xbeac7578	-0.33683372
48	0x3de9892c	0.114031166
49	0xbe48fe32	-0.19628218
50	0xbced1c63	-0.0289442
51	0x3d5a65f6	0.053319894
52	0xbc8524e5	-0.016252944
53	0x3df88ab9	0.12135834
54	0x3d9357f6	0.071945116
55	0x3e0c728c	0.13715571
56	0x3e4d74bc	0.20064062
57	0x3e1c10f5	0.15240844
58	0xbd5d1f53	-0.05398495
59	0x3e551d7a	0.20812026
60	0x3e5b531c	0.21418422
61	0x3e3f04eb	0.1865422
62	0xbe28bd65	-0.16478498
63	0xbd082f2d	-0.033248115
64	0xbda3f0ec	-0.080049366
65	0x3d434e3f	0.047682043
66	0xbd2eb1ee	-0.042650156
67	0xbd96af82	-0.07357694
68	0x3e02a37f	0.12757681
69	0x3e67cf7b	0.22637741
70	0xbe0c91ee	-0.13727543
71	0xbe06ff8d	-0.13183422
72	0xbe019168	-0.12653124
73	0x3df878b7	0.121323995
74	0xbd2a8aee	-0.0416364
75	0xbe828a94	-0.25496352
76	0x3d986e92	0.074429646
77	0xbd920b9b	-0.0713112
78	0xbda92210	-0.0825845
79	0xbd678e6b	-0.056532305
80	0x3debfb28	0.11522514
81	0x3e80ea99	0.25178984
82	0xbe8a2e2f	-0.2698836
83	0xbcc9c061	-0.024627866
84	0x3e036d6d	0.12834711
85	0xbea3a7ee	-0.31964058
86	0xbd3ce08f	-0.046112593
87	0x3e400d7e	0.18755147
88	0x3e1a2d93	0.15056448
89	0xbdeaec88	-0.11470896
90	0xbd894bfd	-0.06703947
91	0xbe2b55e0	-0.16731977
92	0x3e2c91ef	0.16852544
93	0xbdb2125d	-0.08694909
94	0x3d29946d	0.041401315
95	0x3e12227e	0.1427097
96	0x3e6b9d90	0.23009324
97	0x3e2002d8	0.15626085
98	0x3df1796c	0.117907375
99	0xbe4104a6	-0.1884943
100	0xbae7bca0	-0.0017680116
101	0x3d4d28fa	0.050087906
102	0xbcde9bd4	-0.027173914
103	0x3e5f6dca	0.21819225
104	0xbe54e98c	-0.20792216
105	0x3e5c3d17	0.21507679
106	0x3dd07687	0.10178857
107	0x3d36df8e	0.044646792
108	0xbe40ec86	-0.18840227
109	0x3e50f25c	0.20404953
110	0x3d94bc95	0.07262532
111	0x3e154e5a	0.1458067
112	0xbe11936b	-0.14216392
113	0x3de8ac3d	0.11360977
114	0xbe521cc4	-0.20518786
115	0x3be7696d	0.0070621283
116	0xbdda5087	-0.106598906
117	0xbdbdd18e	-0.09268485
118	0xbd1b176b	-0.03786413
119	0x3d7abf8e	0.061217837
120	0x3e0206d0	0.12697911
121	0x3df9e26f	0.12201392
122	0x3e33cf86	0.17559633
123	0xbe7a1a62	-0.24424127
124	0xbdae5077	-0.08511441
125	0xbc1b4707	-0.009477383
126	0xbdab074e	-0.08351003
127	0x3dde32f9	0.10849566
128	0xbbacbdc3	-0.005271645
129	0xbe0a11e7	-0.13483392
130	0xbdedd795	-0.11613385
131	0xbec0a424	-0.3762523
132	0x3bc4609b	0.0059929616
133	0xbd0b51e6	-0.03401365
134	0x3e4e8481	0.20167734
135	0xbe2d62a5	-0.16932161
136	0xbe946c16	-0.28988713
137	0xbe0d63be	-0.1380758
138	0xbe1fbba3	-0.15598921
139	0xbc177b8a	-0.009245763
140	0xbe3070ce	-0.17230532
141	0x3e4114e1	0.18855621
142	0xbae37e72	-0.0017356409
143	0xbebab564	-0.36466515
144	0xbd976eb8	-0.07394165
145	0x3e48b3eb	0.19599883
146	0x3ec9cbe8	0.3941338
147	0x3db6b98a	0.089221075
148	0xbe2f1058	-0.17096078
149	0x3d66f474	0.056385472
150	0xbdf8acfe	-0.12142371
151	0xbdd7ede1	-0.10543419
152	0xbead00fb	-0.3378981
153	0x3c0c4cd5	0.00856324
154	0x3df378d9	0.11888284
155	0x3d66f443	0.05638529
156	0xbbd49e1b	-0.006488574
157	0x3e0af720	0.13570833
158	0xbe2c9372	-0.16853121
159	0x3d32d9c5	0.043664712
160	0xbd7edb9f	-0.062221166
161	0x3cd58efe	0.02606916
162	0xbe83480d	-0.25640908
163	0x3e88a883	0.26691064
164	0x3cc3de61	0.02390975
165	0x3e5c419c	0.21509403
166	0x3e55a4b2	0.20863608
167	0x3df09eb5	0.11749021
168	0x3dfc0cce	0.1230713
169	0xbe351a24	-0.17685753
170	0x3df11bef	0.11772906
171	0xbe60aff1	-0.21942116
172	0xbdb40bbf	-0.08791303
173	0x3c448c7d	0.011996386
174	0x3dddcd29	0.10830147
175	0xbe1c94b9	-0.15291108
176	0x3e6eaa09	0.23307051
177	0xbdf84845	-0.12123159
178	0x3e209138	0.15680397
179	0xbdc81baf	-0.09770905
180	0x3da199a4	0.07890633
181	0x3e2de24b	0.16980855
182	0x3c18a2ec	0.009316187
183	0xbdbe3cfc	-0.092889756
184	0xbe4f2677	-0.20229517
185	0x3ccef081	0.025261166
186	0x3dd53fac	0.10412535
187	0xbcc5f98b	-0.024166843
188	0x3e438212	0.19092587
189	0x3d298b90	0.041392863
190	0x3d0a5f18	0.033782095
191	0xbd227712	-0.039664336
192	0x3d95b94b	0.073107325
193	0x3ec0999f	0.37617204
194	0x3cbcd28a	0.023049612
195	0x3d68e764	0.056861296
196	0xbe164967	-0.14676438
197	0xbc822080	-0.015884638
198	0x3e44d73b	0.19222729
199	0xbdde3ee2	-0.10851838
200	0x3e4195a2	0.18904737
201	0x3e271899	0.16317977
202	0x3e85b0b2	0.2611137
203	0x3d739820	0.05947125
204	0x3e668ba6	0.22514209
205	0xbe015ab3	-0.12632255
206	0xbda309d8	-0.07960862
207	0x3dd7484d	0.10511837
208	0xbddb6087	-0.107117705
209	0xbd9d9b0d	-0.07695589
210	0x3e59d1d2	0.21271446
211	0x3c834797	0.016025348
212	0xbdad5252	-0.08462967
213	0xbc4feddd	-0.012690988
214	0x3dcb5fbf	0.099303715
215	0xbd81146f	-0.063027255
216	0x3e015139	0.1262864
217	0xbe83eb92	-0.25765663
218	0x3d3a1aa3	0.04543556
219	0x3ecb202e	0.3967299
220	0xbd2d5332	-0.04231567
221	0xbca9d2fb	-0.020730486
222	0x3dbd959b	0.092570506
223	0xbe0b1139	-0.13580789
224	0xbe3ba1cd	-0.18323441
225	0xbe6a5a51	-0.22886015
226	0x3df0e8ff	0.117631905
227	0xbd0d3ed5	-0.03448375
228	0xbe02b6e3	-0.12765078
229	0xbd9d0a10	-0.07667935
230	0xbe62d5df	-0.22151898
231	0x3d182ed5	0.037154038
232	0x3e2369ab	0.15958278
233	0x3e5bbfd4	0.21459895
234	0xbe4545a6	-0.1926485
235	0xbd50057c	-0.05078648
236	0x3da11674	0.07865611
237	0x3e7b3b6d	0.24534388
238	0x3da2df80	0.079527855
239	0x3e172572	0.14760378
240	0xbe0bb69e	-0.13643882
241	0x3dd76502	0.105173126
242	0xbdaae523	-0.083444856
243	0x3e97b8a8	0.2963307
244	0x3c3d75d4	0.011563737
245	0x3ce65022	0.028114382
246	0x3df5583b	0.11979719
247	0xbd62c8bf	-0.055367228
248	0xbdc65ee2	-0.09686066
249	0xbe06a3c4	-0.13148409
250	0xbe00e1c6	-0.12586126
251	0x3d975549	0.07389314
252	0xbda461df	-0.0802648
253	0xbe705530	-0.23469996
254	0x3dd0e9ec	0.10200867
255	0x3d8375fe	0.064189896
